…
2023-12-06 01:35:43.906342: I tensorflow/core/common_runtime/gpu/gpu_device.cc:1277] 0:   N
2023-12-06 01:35:43.908123: I tensorflow/core/common_runtime/gpu/gpu_device.cc:1418] Created TensorFlow device (/job:localhost/replica:0/task:0/device:GPU:0 with 22311 MB memory) -> physical GPU (device: 0, name: NVIDIA GeForce RTX 3090, pci bus id: 0000:25:00.0, compute capability: 8.6)
Model: "sequential"
_________________________________________________________________
Layer (type)                 Output Shape              Param #
=================================================================
conv_lst_m2d (ConvLSTM2D)    (None, 10, 256, 256, 64)  840704
_________________________________________________________________
batch_normalization (BatchNo (None, 10, 256, 256, 64)  256
_________________________________________________________________
conv_lst_m2d_1 (ConvLSTM2D)  (None, 10, 256, 256, 64)  819456
_________________________________________________________________
batch_normalization_1 (Batch (None, 10, 256, 256, 64)  256
_________________________________________________________________
conv_lst_m2d_2 (ConvLSTM2D)  (None, 10, 256, 256, 64)  295168
_________________________________________________________________
batch_normalization_2 (Batch (None, 10, 256, 256, 64)  256
_________________________________________________________________
conv_lst_m2d_3 (ConvLSTM2D)  (None, 10, 256, 256, 64)  33024
_________________________________________________________________
conv3d (Conv3D)              (None, 10, 256, 256, 1)   1729
=================================================================
Total params: 1,990,849
Trainable params: 1,990,465
Non-trainable params: 384
_________________________________________________________________
2023-12-06 01:35:46.685096: I tensorflow/compiler/mlir/mlir_graph_optimization_pass.cc:176] None of the MLIR Optimization Passes are enabled (registered 2)
2023-12-06 01:35:46.704279: I tensorflow/core/platform/profile_utils/cpu_utils.cc:114] CPU Frequency: 2900060000 Hz
…
