…
2023-12-06 12:06:20.737944: I tensorflow/core/common_runtime/gpu/gpu_device.cc:1277] 0:   N
2023-12-06 12:06:20.739758: I tensorflow/core/common_runtime/gpu/gpu_device.cc:1418] Created TensorFlow device (/job:localhost/replica:0/task:0/device:GPU:0 with 22311 MB memory) -> physical GPU (device: 0, name: NVIDIA GeForce RTX 3090, pci bus id: 0000:41:00.0, compute capability: 8.6)
Model: "sequential"
_________________________________________________________________
Layer (type)                 Output Shape              Param #
=================================================================
conv_lst_m2d (ConvLSTM2D)    (None, 10, 256, 256, 32)  219648
_________________________________________________________________
batch_normalization (BatchNo (None, 10, 256, 256, 32)  128
_________________________________________________________________
conv_lst_m2d_1 (ConvLSTM2D)  (None, 10, 256, 256, 32)  204928
_________________________________________________________________
batch_normalization_1 (Batch (None, 10, 256, 256, 32)  128
_________________________________________________________________
conv_lst_m2d_2 (ConvLSTM2D)  (None, 10, 256, 256, 32)  73856
_________________________________________________________________
batch_normalization_2 (Batch (None, 10, 256, 256, 32)  128
_________________________________________________________________
conv_lst_m2d_3 (ConvLSTM2D)  (None, 10, 256, 256, 32)  8320
_________________________________________________________________
conv3d (Conv3D)              (None, 10, 256, 256, 1)   865
=================================================================
Total params: 508,001
Trainable params: 507,809
Non-trainable params: 192
_________________________________________________________________
2023-12-06 12:06:37.853185: I tensorflow/compiler/mlir/mlir_graph_optimization_pass.cc:176] None of the MLIR Optimization Passes are enabled (registered 2)
2023-12-06 12:06:37.872304: I tensorflow/core/platform/profile_utils/cpu_utils.cc:114] CPU Frequency: 2900060000 Hz
…
